models/doodoo_model.pth (torch, 17600 bytes, 4 tensors)

linear1.weight f4 [256, 11]
0	0xbe76583a	-0.24057093
1	0x3de71464	0.11283186
2	0xbe6c07d1	-0.23049857
3	0xbac6bb00	-0.0015161932
4	0x3e8eaaa8	0.27864575
5	0xbe515551	-0.20442702
6	0xbdc2a468	-0.09504014
7	0xbe936c3e	-0.2879352
8	0xbe86ed7a	-0.26353055
9	0xbddf14d0	-0.108926415
10	0xbe88c6a1	-0.26714042
11	0xbe893fd7	-0.26806518
12	0x3e1b0d37	0.1514176
13	0xbd08e36f	-0.033420023
14	0x3e93c592	0.28861672
15	0xbe7585de	-0.23976848
16	0x3dd7e3f4	0.105415255
17	0xbe172d06	-0.14763269
18	0x3e17d0e1	0.14825775
19	0x3ea1fe99	0.31639555
20	0x3d1d4ba2	0.038402207
21	0xbe47103e	-0.1943979
22	0xbe03bb8b	-0.1286451
23	0x3e676267	0.22596131
24	0xbd6bedd8	-0.057599872
25	0xbe748cf3	-0.23881893
26	0x3e7a9602	0.24471286
27	0xbe2c3809	-0.1681825
28	0xbb1a72b8	-0.0023566913
29	0xbdaef71c	-0.08543226
30	0x3d13d636	0.03609296
31	0x3e89af8c	0.26891744
32	0xbc5a407c	-0.013321038
33	0x3d82da8d	0.063893415
34	0x3e65616b	0.22400443
35	0xbe73b406	-0.23799142
36	0xbc8cf473	-0.017206406
37	0xbe13811d	-0.14404722
38	0xbe027c49	-0.12742724
39	0xbd954a4b	-0.07289561
40	0xbe4149c9	-0.18875803
41	0x3e513df9	0.20433797
42	0x3e802190	0.25025606
43	0x3bb23186	0.0054380326
44	0xbe3527d7	-0.17690979
45	0x3e2109ee	0.15726444
46	0x3e7f3d53	0.24925737
47	0xbe5cdbd7	-0.21568237
48	0xbe75b79e	-0.23995826
49	0xbe859f7a	-0.26098233
50	0x3e89a187	0.26881048
51	0xbe5e95e4	-0.21736866
52	0x3d839450	0.06424773
53	0x3dde8a16	0.108661816
54	0x3d703ad0	0.058649838
55	0xbd8b29ae	-0.06795059
56	0xbe8b57b1	-0.2721534
57	0xbe261ac4	-0.16221148
58	0x3daefe14	0.08544555
59	0xbd928250	-0.071537614
60	0x3ce06090	0.027389795
61	0x3dc4f870	0.09617698
62	0xbe052e37	-0.13005911
63	0xbe7f36b6	-0.24923214
64	0xbd2bc528	-0.04193607
65	0xbe850430	-0.25979757
66	0xbe90e075	-0.28296247
67	0x3c1227a7	0.008920587
68	0xbd9bb6fb	-0.0760326
69	0x3e2dbaf7	0.16965853
70	0x3e8921cc	0.26783597
71	0xbe6b244c	-0.22963065
72	0xbe6108ba	-0.21975985
73	0xbe007e9f	-0.12548302
74	0x3d95212a	0.07281716
75	0x3e74d5af	0.23909639
76	0xbe69d7cf	-0.2283623
77	0x3e41df9f	0.18932961
78	0xbe6f9a0e	-0.23398611
79	0x3da9627e	0.08270739
80	0x3e8cf1d5	0.27528253
81	0xbdb97174	-0.090548426
82	0x3d03c170	0.0321669
83	0xbe803bfb	-0.2504576
84	0xbd2f7578	-0.042836636
85	0xbb5ce32a	-0.0033704736
86	0xbe604290	-0.21900392
87	0xbe406dba	-0.18791857
88	0xbe314289	-0.17310537
89	0x3dfe66cb	0.1242195
90	0x3e5a13a5	0.21296556
91	0x3e7bdee3	0.24596743
92	0x3e3e96dc	0.18612236
93	0xbdad067d	-0.08448503
94	0x3e4b2a66	0.19840392
95	0xbe93ca94	-0.28865492
96	0x3e940374	0.28908885
97	0xbe0e797e	-0.13913533
98	0xbe69c76e	-0.22829983
99	0x3e313818	0.17306554
100	0xbe13d717	-0.14437519
101	0xbe57aaa2	-0.21061185
102	0xbd276b8f	-0.04087406
103	0x3d71d8e3	0.05904473
104	0xbe1e63cd	-0.15467758
105	0xbde4b1f2	-0.11166753
106	0x3e016321	0.12635471
107	0xbdd309f3	-0.10304632
108	0xbe1092ae	-0.14118454
109	0xbcbca323	-0.023027008
110	0xbe94d668	-0.2906983
111	0x3e15c90f	0.14627479
112	0x3e83735d	0.25673953
113	0xbd2f783d	-0.042839278
114	0xbe7eac01	-0.24870302
115	0x3d86c6b1	0.06580866
116	0xbd946037	-0.07244914
117	0x3a9e5ceb	0.0012082135
118	0x3d8c403d	0.0684819
119	0xbd3be305	-0.0458708
120	0xbd8b72bd	-0.06808994
121	0xbe9a8b2b	-0.30184302
122	0x3ba1e372	0.0049404437
123	0xbd232dad	-0.03983848
124	0x3e9a2a90	0.30110598
125	0xbcbe852c	-0.02325686
126	0x3e9126ac	0.28349817
127	0xbd0bdf9d	-0.0341488
128	0x3e944642	0.28959852
129	0xbe1b2770	-0.15151763
130	0xbe079908	-0.1324197
131	0x3db1bb5b	0.08678313
132	0xbd04ce76	-0.03242346
133	0xba23b5a4	-0.0006245023
134	0xbe89f771	-0.26946595
135	0x3e07af27	0.13250409
136	0xbcfcd88f	-0.030864982
137	0xbdb5b170	-0.08871734
138	0xbe40580a	-0.18783584
139	0xbe7ef93d	-0.24899764
140	0x3e8bad02	0.27280432
141	0x3dfa36b6	0.122174665
142	0xbe0c5b0d	-0.13706608
143	0x3e59ee06	0.21282205
144	0x3be35d65	0.0069386237
145	0x3e8e67b4	0.27813494
146	0x3d898ca3	0.067162775
147	0x3e39b1c0	0.18134212
148	0x3e24ef9d	0.1610703
149	0xbe8de990	-0.27717257
150	0xbe487802	-0.1957703
151	0xbe4b2aac	-0.19840497
152	0x3e6e3796	0.23263392
153	0x3e7c9115	0.2466472
154	0x3e8d8b8b	0.27645525
155	0xbe5f5f48	-0.2181369
156	0x3e6bfda6	0.23045978
157	0xbe87c582	-0.26517874
158	0xbdf070ee	-0.1174029
159	0x3e9b8cee	0.30380958
160	0x3df77097	0.12082022
161	0x3daf98d3	0.08574071
162	0x3e077f0c	0.13232058
163	0xbdb6591c	-0.08903715
164	0xbde5b0bb	-0.11215349
165	0xbe441bd4	-0.1915124
166	0xbd43f698	-0.047842592
167	0xbe067f08	-0.13134396
168	0xbe44f4fa	-0.19234076
169	0x3db36314	0.08759132
170	0x3d88eae0	0.06685424
171	0xbe2027c2	-0.15640166
172	0xbda942b0	-0.08264673
173	0xbe8bf349	-0.2733405
174	0xbe1e229e	-0.15442893
175	0xbda8df34	-0.082456976
176	0xbb92a0ba	-0.0044747265
177	0x3e021d1d	0.12706418
178	0x3e595780	0.21224785
179	0xbe7668e2	-0.24063447
180	0xbdb062a0	-0.08612561
181	0x3d5f7876	0.05455824
182	0xbdc6e24c	-0.097111315
183	0x3e26737a	0.16254988
184	0x3da06da9	0.07833416
185	0xbdcbb88b	-0.09947308
186	0xbcaceff9	-0.021110522
187	0xbe18753e	-0.14888474
188	0xbd83e35f	-0.06439852
189	0x3e436cf4	0.19084531
190	0x3e44af7c	0.19207567
191	0x3e534552	0.20631912
192	0x3d2fe80d	0.04294591
193	0xbe6f9f0b	-0.23400514
194	0xbe0a5e71	-0.13512589
195	0x3e67ffee	0.22656223
196	0xbe207c85	-0.156725
197	0x3e1f5abc	0.15561956
198	0xbd346160	-0.044038177
199	0x3e80f2b5	0.2518517
200	0xbe3a0782	-0.18166927
201	0x3e86b077	0.26306507
202	0xbdca1f58	-0.098692596
203	0xbc6955e0	-0.014241666
204	0x3e4d794b	0.20065801
205	0xbe0702f2	-0.13184717
206	0x3be92a4c	0.007115638
207	0xbdb5c09b	-0.08874627
208	0xbe69230a	-0.22767273
209	0xbbad7f20	-0.0052946955
210	0x3e69dbed	0.22837801
211	0xbe4e2019	-0.20129432
212	0x3e62f856	0.22165045
213	0xbd3ee6d3	-0.04660685
214	0x3e941859	0.28924826
215	0xbda91e72	-0.0825776
216	0xbe7f8cbb	-0.24956028
217	0x3d6bd962	0.05758036
218	0x3ded5baa	0.11589749
219	0xbd48406f	-0.048889574
220	0xbcf5c1db	-0.029999664
221	0xbda00134	-0.078127295
222	0x3e8ed82c	0.278993
223	0x3d3775ed	0.044790197
224	0x3e7f4a49	0.24930681
225	0x3e59e477	0.21278559
226	0x3e63dee8	0.22253
227	0xbe3a883d	-0.18216033
228	0xbd544313	-0.05182178
229	0xbe7a4d38	-0.24443519
230	0xbdcdfafe	-0.100576386
231	0xbc90c350	-0.017671257
232	0x3e970373	0.2949482
233	0x3e3fe9f8	0.18741596
234	0xbe73039d	-0.23731847
235	0xbe429f22	-0.19006017
236	0xbe5314dd	-0.20613427
237	0xbcc30a78	-0.023808703
238	0x3e8fde32	0.2809921
239	0xbe6a803a	-0.22900477
240	0x3cbb1d61	0.022841157
241	0xbe7ebc9e	-0.24876639
242	0xbda8a1f7	-0.08234017
243	0xbe57e2e9	-0.21082653
244	0x3d2d092f	0.042245086
245	0xbdc63a1c	-0.09679052
246	0xbd65ee4d	-0.056135464
247	0x3df02ebd	0.117276646
248	0x3dfb331d	0.122656085
249	0x3e201af1	0.15635277
250	0x3e8e043d	0.2773761
251	0xbe0b34ad	-0.13594313
252	0x3cbc5625	0.022990296
253	0xbdb9c162	-0.09070088
254	0xbe6a0f87	-0.22857486
255	0x3dc06883	0.09394934

linear1.bias f4 [256]
0	0xbe265d53	-0.16246538
1	0x3e2159ba	0.15756884
2	0xbe90fbc0	-0.2831707
3	0x3e93d033	0.2886978
4	0xbd856224	-0.065128595
5	0xbe1328b4	-0.14370996
6	0x3d26a138	0.040681094
7	0xbe920180	-0.2851677
8	0xbe2be532	-0.1678665
9	0x3ddd97e0	0.108199835
10	0x3e5ba0e1	0.21448089
11	0xbc18239b	-0.009285833
12	0x3d496949	0.049172673
13	0x3e8116e7	0.25212786
14	0x3e1211f0	0.14264655
15	0xbe974e18	-0.29551768
16	0x3e8435b6	0.25822228
17	0xbe3d2143	-0.1846972
18	0x3d4dbb24	0.0502273
19	0x3d441271	0.04786915
20	0x3ce43ee8	0.027862027
21	0x3dcee300	0.101018906
22	0x3defa1ce	0.11700784
23	0xbd0528e8	-0.032509714
24	0xbde29686	-0.11063866
25	0x3e346420	0.1761632
26	0xbc919ba0	-0.017774403
27	0x3e93ae5f	0.28843972
28	0xbd859097	-0.06521719
29	0xbdd4ef2f	-0.10397183
30	0x3cb00150	0.021485
31	0x3cc52ee0	0.024070203
32	0xbe4c3fde	-0.19946238
33	0x3e0a36e5	0.13497503
34	0x3e3e0e3a	0.18560115
35	0x3c7ac60b	0.015306006
36	0xbe98a232	-0.29811245
37	0x3d851b51	0.06499351
38	0x3e2dd032	0.16973951
39	0xbe93671c	-0.28789604
40	0x3e475977	0.19467722
41	0x3e3e6db2	0.18596533
42	0xbd286092	-0.04110772
43	0x3e438ad1	0.19095923
44	0xbe7f6070	-0.24939132
45	0x3e8608f2	0.261787
46	0xbc0bdb03	-0.008536103
47	0xbdf29747	-0.1184526
48	0xbe28cfd3	-0.16485529
49	0x3e7a1519	0.2442211
50	0x3e97144f	0.29507682
51	0x3d08bae2	0.03338135
52	0xbe7cbd0f	-0.24681495
53	0x3d54db9e	0.051967256
54	0xbe3d8054	-0.18505985
55	0xbe963a19	-0.293412
56	0xbd44b553	-0.048024487
57	0x3decfbff	0.11571502
58	0x3e887545	0.2665197
59	0xbe304a24	-0.17215782
60	0xbde32dc7	-0.11092716
61	0xbe03082f	-0.1279609
62	0xbe38ab8a	-0.18034187
63	0xbc522e3b	-0.012828405
64	0x3e13d161	0.1443534
65	0xbcd54025	-0.026031563
66	0x3e2be573	0.16786747
67	0xbe3fe4af	-0.1873958
68	0x3e7bc49b	0.24586718
69	0x3ca4b540	0.020105958
70	0x3e4e3317	0.20136677
71	0x3e0e254a	0.13881412
72	0xbe0f889c	-0.14016956
73	0xbe463ef2	-0.19359949
74	0x3e6c805b	0.23095839
75	0x3d1219db	0.03566919
76	0x3e2328f4	0.15933591
77	0x3e6858cf	0.22690128
78	0x3e4e9ea6	0.20177707
79	0xbe0dbcfc	-0.13841623
80	0x3d4e9e1d	0.050443757
81	0xbe424d45	-0.18974788
82	0xbdee6c21	-0.11641718
83	0x3e76ad69	0.24089588
84	0xbe79fafc	-0.24412149
85	0xbe580491	-0.21095492
86	0x3e0ea0c3	0.13928513
87	0x3e64d14b	0.22345464
88	0xbd833f61	-0.06408573
89	0x3dfad67b	0.1224794
90	0xbcb800bd	-0.02246129
91	0xbbefa256	-0.007313053
92	0x3e0dd278	0.13849819
93	0xbe9a6efb	-0.30162796
94	0x3d79005f	0.06079137
95	0x3d9a2dde	0.0752828
96	0xbda6a73f	-0.081373684
97	0xbe6816ed	-0.22664995
98	0x3d9729c7	0.07381015
99	0xbd43feb0	-0.04785031
100	0x3e8d9eef	0.2766032
101	0x3e84c6e8	0.25933003
102	0x3dd55b8e	0.10417853
103	0x3e8e1565	0.27750698
104	0x3cdc93c0	0.026925921
105	0x3d81c160	0.063357115
106	0xbd990af7	-0.074727945
107	0xbe2f0b2e	-0.17094108
108	0xbdab07e0	-0.083511114
109	0x3e4f0118	0.20215261
110	0xbe08a129	-0.13342728
111	0x3db452a1	0.08804823
112	0x3e441c10	0.1915133
113	0x3e7f258d	0.24916668
114	0x3e3dde1b	0.18541758
115	0xbe819c0a	-0.2531436
116	0x3e8f7ef2	0.2802654
117	0x3e1722d0	0.14759374
118	0x3e1f2948	0.15543091
119	0xbceaf98f	-0.028683452
120	0x3d6cad99	0.057782743
121	0x3d702b95	0.058635313
122	0x3e40d9e9	0.18833126
123	0x3dc6448b	0.09681042
124	0x3e960a19	0.2930458
125	0x3e2f3714	0.17110854
126	0xbd0ceda4	-0.03440632
127	0x3dc4abe1	0.09603096
128	0xbd71a037	-0.058990683
129	0xbe6bca39	-0.2302636
130	0xbcef280f	-0.029193906
131	0x3d9717e5	0.073776044
132	0xbe5cef0e	-0.21575567
133	0xbe8f4912	-0.27985436
134	0xbe08ad4d	-0.13347359
135	0x3a82bb95	0.0009974117
136	0x3dcb8bd1	0.09938777
137	0x3e974112	0.29541832
138	0x3e8c6ab0	0.27425146
139	0x3e587f46	0.21142301
140	0x3da0dcfe	0.07854651
141	0x3d99c24d	0.07507763
142	0xbe917363	-0.28408346
143	0xbd8ae28b	-0.06781491
144	0x3e51df2a	0.20495287
145	0xbcea4c0a	-0.028600711
146	0xbdaafac6	-0.083486125
147	0x3d8f1e29	0.069881745
148	0x3d903718	0.07041758
149	0x3d9c399e	0.07628177
150	0x3d5f66d1	0.054541413
151	0x3ea2f5e5	0.31828228
152	0x3e90ac0c	0.2825626
153	0x3e6f9550	0.23396802
154	0x3e475df9	0.19469441
155	0x3dc0b7d7	0.09410065
156	0xbe300094	-0.1718772
157	0x3e253f52	0.16137436
158	0x3e8b5f81	0.272213
159	0x3ca76633	0.020434475
160	0xbe00fdc5	-0.12596805
161	0x3e0a9a94	0.1353553
162	0xbea6f037	-0.32605144
163	0xbe472ba0	-0.19450235
164	0x3d38fd70	0.04516357
165	0xbde56a3c	-0.11201903
166	0xbcd5b79e	-0.026088532
167	0xbd1cd6f3	-0.03829093
168	0x3dafb9ba	0.085803464
169	0x3b9d5b82	0.0048021683
170	0xbe3fb49c	-0.18721241
171	0xbe8b541b	-0.27212605
172	0x3e7ce706	0.24697503
173	0xbe7d4193	-0.24732046
174	0x3e63a038	0.22229087
175	0xbe930a87	-0.2871897
176	0xbe8cb15a	-0.27479059
177	0xbd9a9d7f	-0.07549571
178	0x3de6de3a	0.11272855
179	0xbe0b4663	-0.13601069
180	0xbe35e9dc	-0.17764992
181	0xbe8af778	-0.2714193
182	0xbde6e848	-0.11274773
183	0x3e6c0c36	0.23051533
184	0x3e96d21d	0.2945718
185	0xbda098af	-0.07841622
186	0x3e3d5252	0.18488434
187	0xbdd9401e	-0.106079325
188	0x3d5672a5	0.052355427
189	0x3e993ea6	0.2993061
190	0xbdc3256b	-0.09528621
191	0xbe4fe40f	-0.20301841
192	0xbe2338a4	-0.15939575
193	0xbe965f17	-0.29369423
194	0x3df39c88	0.1189509
195	0x3e4c3556	0.19942221
196	0x3c81adba	0.01582991
197	0x3d7302f2	0.05932898
198	0x3d616d79	0.055036042
199	0xbe1b70a7	-0.15179692
200	0x3e73fd91	0.23827197
201	0xbca9deea	-0.020736177
202	0xbd6734ac	-0.056446716
203	0x3d0795d0	0.033101857
204	0x3e62fe2e	0.22167274
205	0x3e37bb0b	0.17942445
206	0xbe92d85c	-0.28680694
207	0x3e1c2c5e	0.152513
208	0xbe98814e	-0.29786152
209	0xbe29f0ba	-0.16595736
210	0x3e95edd3	0.29283008
211	0xbe925511	-0.28580526
212	0xbe2b540e	-0.16731283
213	0xbe52d320	-0.2058835
214	0x3c9e0fe8	0.019294694
215	0x3d91b2cd	0.07114182
216	0xbc6e8a36	-0.014559319
217	0xbe7a845a	-0.2446455
218	0x3d8d5025	0.06900052
219	0x3e8614f8	0.26187873
220	0xbe1ee81f	-0.15518235
221	0x3e428b8a	0.18998542
222	0xbe882643	-0.2659169
223	0x3dcf90b6	0.10135023
224	0xbe0355da	-0.12825719
225	0xbe81e255	-0.2536799
226	0x3e682ce5	0.22673376
227	0xbe2377f7	-0.15963732
228	0xbde7f17a	-0.11325355
229	0xbe1d5bae	-0.15367004
230	0x3e9b5e4a	0.30345374
231	0x3d746080	0.059662342
232	0xbdf0e1f5	-0.11761848
233	0x3d0a03ea	0.03369514
234	0xbd1eea74	-0.03879781
235	0x3e275aa9	0.16343178
236	0x3e8fb184	0.2806512
237	0xbe17f94e	-0.14841196
238	0xbd3c4ce9	-0.045971785
239	0x3d0356ae	0.032065086
240	0x3e5a6343	0.21326928
241	0xbe9349b3	-0.28767166
242	0xbe1a4c4f	-0.15068172
243	0xbd52d217	-0.05146989
244	0x3cf116a6	0.029429745
245	0x3e977963	0.29584798
246	0xbe5e35ec	-0.21700257
247	0xbe984ff1	-0.2974849
248	0x3e9a4b04	0.30135357
249	0xbd461fd7	-0.04837021
250	0xbd91a37a	-0.07111259
251	0x3e313011	0.17303492
252	0x3c62518c	0.013813388
253	0xbd8c8fb8	-0.0686335
254	0xbdd86add	-0.105672576
255	0xbe3713ff	-0.17878722

linear2.weight f4 [3, 256]
0	0x3bdaa370	0.0066723153
1	0xbd5e0db8	-0.054212302
2	0xbd38335d	-0.04497086
3	0xbc961926	-0.018322539
4	0x3cdb2087	0.026748909
5	0xbd59db42	-0.053187616
6	0x3bd75560	0.006571457
7	0x3c2e9fe3	0.010658237
8	0x3be7584c	0.0070600864
9	0x3d6c3ab6	0.05767318
10	0x3d71e063	0.059051882
11	0x3d688e73	0.056776475
12	0xbd4bf107	-0.04979041
13	0xbd4140bd	-0.04718088
14	0xbd309e25	-0.04311957
15	0x3c5137e8	0.012769677
16	0x3cf64af5	0.03006504
17	0x3c1c5a76	0.009543052
18	0x3ae0f439	0.0017162628
19	0xbd1403a3	-0.03613628
20	0x3c9dbd24	0.019255228
21	0xbcf555e0	-0.029948175
22	0x3cb9965b	0.022654703
23	0x3d50c20b	0.050966304
24	0x3d4eabbd	0.05045675
25	0xbcda74fb	-0.026667109
26	0x3c0bc7df	0.00853154
27	0xbd6ddbb0	-0.05807084
28	0x3cf52d60	0.029928863
29	0xbd1dac2a	-0.038494267
30	0x3caf926d	0.021432126
31	0x3ba633b1	0.00507208
32	0xbce151a0	-0.027504742
33	0xbba9c1e1	-0.005180583
34	0xbbb5d147	-0.0055486294
35	0x39c1ce3d	0.00036965488
36	0xbd2dcd1e	-0.042431943
37	0x3c486abb	0.012232478
38	0xbc60d944	-0.013723675
39	0x3c5360cf	0.012901499
40	0x3d2f40ef	0.042786535
41	0x3c5c739f	0.013455301
42	0xbd976dd4	-0.07393995
43	0x3d0c938e	0.034320407
44	0xbd607efb	-0.054808598
45	0xbd113811	-0.03545386
46	0xbd4924d5	-0.04910739
47	0xbce0c3b3	-0.027437067
48	0xbcbeb867	-0.02328129
49	0xbca96d4d	-0.020682001
50	0xbc902de5	-0.01760001
51	0xbc426d4d	-0.01186688
52	0xbc817bf5	-0.015806178
53	0xbd77ebd5	-0.06052764
54	0x3b41685b	0.0029511664
55	0xbca30dfc	-0.01990413
56	0x3c9682f3	0.018372988
57	0xbd5ca1d0	-0.053865254
58	0x3c8db26b	0.01729699
59	0x3d87e519	0.06635494
60	0xbd31b8a6	-0.043388985
61	0x3c50761e	0.012723474
62	0xbd5d9084	-0.0540929
63	0xbd03f78b	-0.032218497
64	0x3d048c31	0.03236026
65	0x3c167663	0.009183499
66	0xbd4f69d7	-0.050638046
67	0xbc2e0c90	-0.010623112
68	0xbc8bf9f2	-0.017086957
69	0xbcd2fd3e	-0.02575552
70	0xb8ac0bc8	-8.2037935e-05
71	0x3cb4e56d	0.022082055
72	0x3bc6c0a0	0.006065443
73	0x3d4e6893	0.0503927
74	0x3bb505b3	0.005524361
75	0xbd585bde	-0.052821986
76	0x3b5a21c2	0.0033284281
77	0xbd2716a6	-0.040793084
78	0x3bce160b	0.006289249
79	0x3b74f8ec	0.0037379814
80	0x3bc49223	0.005998866
81	0x3d09cbba	0.033641554
82	0xbda6f740	-0.08152628
83	0xbd36f1a5	-0.044664044
84	0xbd1089d6	-0.0352877
85	0x3d06ff6e	0.03295844
86	0xbd7a345f	-0.0610851
87	0xbc4fb266	-0.012676811
88	0xbcb466eb	-0.022021731
89	0x3d090e6d	0.033461023
90	0xbc6dd3b3	-0.014515805
91	0x3d63068f	0.055426177
92	0x3d427eac	0.047484085
93	0xbd53b353	-0.05168469
94	0xbccb764d	-0.024836684
95	0x3d741466	0.059589766
96	0xbc6012d9	-0.013676369
97	0x3d137435	0.035999496
98	0x3d374143	0.044739973
99	0x3cd8d95d	0.026470834
100	0x3c2a9cdc	0.010413375
101	0xbc7ea4d9	-0.015542232
102	0xbd133396	-0.035937868
103	0x3b9256b4	0.004465902
104	0x3a8c5073	0.0010705128
105	0x3ca9fdbc	0.020750873
106	0x3b42019f	0.0029603017
107	0xbd9d773f	-0.0768876
108	0xbc90d9c0	-0.017681956
109	0xbd306bcf	-0.043071564
110	0xbd371b94	-0.044704035
111	0xbd50be34	-0.05096264
112	0x3c187dac	0.009307306
113	0x3d415290	0.04719788
114	0x3caa71d9	0.02080624
115	0xbd125e16	-0.03573426
116	0x3da8d46f	0.082436435
117	0xbbf831b2	-0.0075742835
118	0xbc9da55b	-0.019243887
119	0x3b3c5130	0.0028734915
120	0xbd691b8c	-0.056911036
121	0x3c78e1e3	0.015190574
122	0xbb563513	-0.0032685443
123	0xbd64a704	-0.05582334
124	0xbd890975	-0.06691257
125	0xbc95ca7a	-0.018285025
126	0x3cb08c4a	0.02155127
127	0xbc5aa9fd	-0.013346192
128	0x3b5bb99e	0.0033527385
129	0xbd5aa423	-0.05337919
130	0x3bbae852	0.0057039643
131	0x3bf53886	0.0074835448
132	0x3d1e4576	0.03864046
133	0x3d511288	0.051043063
134	0xbcf25df4	-0.029585816
135	0x3c8cecc8	0.01720275
136	0xbd34c9dd	-0.044137824
137	0xbd030c4d	-0.031994153
138	0x3c3d6bb9	0.011561328
139	0x3c87358c	0.016505025
140	0xbd44c712	-0.04804141
141	0x3c06f74e	0.008237673
142	0xbd15c23c	-0.03656219
143	0x3d3b1198	0.045671076
144	0xbd66e596	-0.056371294
145	0xbc858b36	-0.016301733
146	0xbcd52540	-0.026018739
147	0xbd24c57d	-0.040227402
148	0x3cb994d7	0.02265398
149	0xbdb1c1e7	-0.08679562
150	0xbd94fdbe	-0.0727496
151	0xbd072b24	-0.033000126
152	0xbce3f9f6	-0.027829152
153	0xbd19420b	-0.0374165
154	0xbd4cc97d	-0.04999684
155	0x3ce95deb	0.028487166
156	0xbbc3de5f	-0.0059774364
157	0x3d10ceab	0.035353344
158	0xbc67924f	-0.014134004
159	0x3c8dad91	0.017294677
160	0xbcdfd4b5	-0.027323106
161	0xbd5ca98f	-0.05387264
162	0xbba88d40	-0.0051437914
163	0x3d5d184e	0.053978257
164	0xbd683bc1	-0.05669761
165	0x3d048028	0.03234878
166	0x3d01d8fe	0.03170108
167	0x3c7890d7	0.015171251
168	0x3d00998a	0.031396426
169	0xbd5dcda4	-0.054151192
170	0xbd6022e9	-0.054720793
171	0x3d2a8010	0.041626036
172	0xbd7d9651	-0.06191093
173	0x3cbd9d9c	0.023146443
174	0xbd827625	-0.063701905
175	0x3b68a3b3	0.0035497963
176	0xbd23bb4d	-0.039973546
177	0xbd4e687e	-0.05039262
178	0x3cb148b5	0.021641115
179	0xbc2774c5	-0.010220711
180	0xbd1350cd	-0.03596573
181	0x3cf9e782	0.0305059
182	0x3cc9ab48	0.024617806
183	0xbd6a2e9d	-0.05717336
184	0xbd01ae57	-0.031660404
185	0xbb82999b	-0.0039855964
186	0xbd26ee06	-0.04075434
187	0x3caf4783	0.021396404
188	0xbd47dbce	-0.048793606
189	0xbceafd54	-0.02868525
190	0x3d1961a3	0.03744663
191	0xbc8392da	-0.016061235
192	0x3c8d8398	0.017274663
193	0x3d36fa38	0.04467222
194	0xbc5a1f56	-0.013313135
195	0xbce9d316	-0.028543036
196	0xbd22d017	-0.03974923
197	0x3ccc9fb8	0.024978504
198	0x3cdd8c4a	0.027044434
199	0xbc4db433	-0.01255517
200	0xbd672db3	-0.056440067
201	0x3cae7a5c	0.02129858
202	0xbdb348b3	-0.08754101
203	0xbcf116a0	-0.029429734
204	0x3cecb892	0.028896604
205	0xbd0ccf6e	-0.034377508
206	0xbc01ec68	-0.007929899
207	0xbd28b16e	-0.041184835
208	0x3b7984e0	0.0038073584
209	0x3d0cac4a	0.034343995
210	0xbd9fbce0	-0.07799697
211	0x3b81acc4	0.003957363
212	0xbd4bff0f	-0.04980379
213	0x3a97805d	0.0011558641
214	0xbd182744	-0.03714682
215	0xbd8a9e2d	-0.06768451
216	0xbd460769	-0.04834691
217	0x3ca915f2	0.020640347
218	0x3d5febd1	0.05466825
219	0x3d6faa0b	0.058511775
220	0xbcc402ef	-0.02392718
221	0x3d91ea68	0.071247876
222	0xbc9ee407	-0.019395841
223	0xbd7c712f	-0.061631378
224	0xbd3fe0d4	-0.046845272
225	0xbad03922	-0.0015886168
226	0xbd18edaa	-0.03733603
227	0x3c3074ae	0.010770006
228	0xbd2500a5	-0.040283818
229	0x3d2dcc54	0.04243119
230	0xbd8d7ca9	-0.06908543
231	0xbc445ea2	-0.011985453
232	0x3c868b77	0.016423924
233	0xbd517f82	-0.05114699
234	0x3c5cb9c1	0.013472022
235	0xbd914bfc	-0.07094571
236	0xbd0dda52	-0.034632035
237	0xbd3e65d7	-0.04648384
238	0x3d20f928	0.039300114
239	0xbba5fd70	-0.0050656125
240	0xbca8dfcf	-0.020614533
241	0xbcc5d083	-0.024147278
242	0x3aac4493	0.0013142995
243	0x3cbf39b3	0.023342943
244	0x3c9a186b	0.018810472
245	0xbc6656b2	-0.014058756
246	0x3c811b9c	0.015760235
247	0x3cbf5e0a	0.023360271
248	0xbcd20e4c	-0.025641583
249	0x3c43ce80	0.011951089
250	0xbc97511a	-0.01847129
251	0x3d171598	0.036885828
252	0x3c7fa82b	0.015604059
253	0x3bf6a46d	0.0075269253
254	0xbc0b9805	-0.008520131
255	0x3c8492fa	0.016183365

linear2.bias f4 [3]
0	0xbd71dbfd	-0.059047688
1	0xbb56d10b	-0.0032778408
2	0x3b5f21c4	0.0034047225
