models/great_model.pth (torch, 17216 bytes, 4 tensors)

linear1.weight f4 [256, 11]
0	0x3eede096	0.46460408
1	0x3d96cb7d	0.07363031
2	0x3dda267e	0.10651873
3	0xbe3c13ed	-0.18366976
4	0xbe26d894	-0.16293555
5	0xbddeba6e	-0.108754024
6	0xbf04c0ec	-0.51856875
7	0x3e109e46	0.14122877
8	0x3e5fe080	0.21862984
9	0x3e138652	0.14406708
10	0x3ee8147b	0.45328125
11	0x3dbf587a	0.093430474
12	0xbf22b350	-0.6355486
13	0x3ea7666d	0.32695332
14	0x3e9142d3	0.28371295
15	0x3d0fef6b	0.035140436
16	0xbe7393ea	-0.23786893
17	0x3e7cb143	0.24676995
18	0xbd924491	-0.07141984
19	0xbebeb7e4	-0.37249672
20	0xbe0dd896	-0.13852152
21	0x3dfc3c04	0.123161346
22	0x3e339479	0.17537107
23	0xbe73e044	-0.2381602
24	0x3ebb2041	0.36548045
25	0xbe61cbe1	-0.2205043
26	0xbdee2655	-0.11628405
27	0x3e8d57d6	0.27606076
28	0xbe46ab68	-0.19401324
29	0xbdd7ed79	-0.10543341
30	0x3ece326f	0.40272853
31	0xbc46c33b	-0.0121315075
32	0xbd653d56	-0.055966698
33	0x3d8c1c80	0.068413734
34	0x3ded850f	0.115976445
35	0xbcd4c053	-0.025970614
36	0xbeebd3ec	-0.4606012
37	0x3db71865	0.089402
38	0xbe07ce76	-0.13262352
39	0x3e7966e7	0.2435566
40	0xbf12e614	-0.5738232
41	0xbf1b97f7	-0.60778755
42	0xbe87a116	-0.26490086
43	0x3eb1b0c9	0.3470519
44	0x3eec1ab3	0.4611412
45	0x3d03f437	0.032215323
46	0xbd757aa5	-0.059931416
47	0x3f0a6402	0.5405885
48	0x3ed2ad7d	0.41147986
49	0xbecb8f83	-0.39757928
50	0xbb013318	-0.0019714292
51	0xbeb3babf	-0.35103413
52	0xbe935682	-0.28776938
53	0x3f094dfa	0.5363461
54	0x3e5f4c24	0.21806389
55	0x3df8ad83	0.1214247
56	0x3d5043b4	0.050845817
57	0x3e996ebb	0.29967293
58	0xbd0aed9e	-0.033918016
59	0xbe98698d	-0.2976803
60	0xbce64a95	-0.028111735
61	0xbd96b643	-0.073589824
62	0xbe404778	-0.18777263
63	0xbcf4c788	-0.0298803
64	0x3eb098bb	0.34491524
65	0x3e37db7b	0.17954819
66	0xbe1c2ea8	-0.15252173
67	0xbe0136cf	-0.12618564
68	0x3e85587a	0.26044065
69	0x3dcbdee6	0.09954624
70	0xbe53c84e	-0.20681879
71	0x3d0ba8c0	0.03409648
72	0xbe37312a	-0.17889848
73	0xbe4f0dca	-0.20220104
74	0x3e545955	0.20737202
75	0x3e001ef3	0.12511806
76	0xbe7db521	-0.24776126
77	0xbe1e310d	-0.15448399
78	0x3eab5085	0.3345987
79	0x3ecad928	0.39618802
80	0x3e4bed9d	0.19914861
81	0xbc90178c	-0.017589353
82	0xbe0101a4	-0.12598282
83	0x3e346c46	0.17619428
84	0xbe2059fd	-0.15659328
85	0xbe5c369d	-0.21505208
86	0xbd0d4ff6	-0.034500085
87	0xbe700c83	-0.23442273
88	0x3f027fd6	0.5097631
89	0xbf07ce0d	-0.53048784
90	0x3ebc871b	0.36821827
91	0xbeb2b6cb	-0.34905085
92	0x3e9b6146	0.3034765
93	0x3e70f0e2	0.2352939
94	0xbec61a86	-0.3869211
95	0xbde5d7b1	-0.112227805
96	0xbe5e10cf	-0.216861
97	0xbe5ac9c9	-0.21366037
98	0x3ee1f527	0.4413235
99	0xbe3ef8f4	-0.18649656
100	0x3e069aeb	0.13145034
101	0x3ca41c25	0.020032952
102	0x3ea79d4a	0.3273719
103	0x3dc73bff	0.0972824
104	0xbf04b765	-0.5184234
105	0xbdfeacb7	-0.124352865
106	0xbdb5293f	-0.08845758
107	0x3e7241e5	0.2365795
108	0xbefa11d8	-0.4884174
109	0xbf436ce5	-0.76338035
110	0xbeb9e960	-0.36310863
111	0x3e3b5674	0.18294698
112	0xbe4f443c	-0.20240873
113	0xbe3f2a0c	-0.18668383
114	0xbe739fd1	-0.23791434
115	0x3ed6ce06	0.41954058
116	0x3ed012ab	0.40639243
117	0xbec7f984	-0.39057553
118	0xbedcc5dd	-0.43119708
119	0x3e22836d	0.15870447
120	0x3e5e0671	0.21682145
121	0x3ec0e2d8	0.37673068
122	0x3e197635	0.14986499
123	0x3ecf2c46	0.40463465
124	0x3d8d9f26	0.06915121
125	0x3d67007c	0.056396946
126	0x3d93a385	0.07208923
127	0xbe8a3f31	-0.27001336
128	0x3ec8252f	0.3909087
129	0xbdd93cd2	-0.10607304
130	0xbe300cc6	-0.17192373
131	0x3e078117	0.13232838
132	0xbea87283	-0.32899866
133	0xbe8c40ef	-0.2739329
134	0x3ee739e1	0.45161346
135	0x3dcd9c3e	0.100395665
136	0x3e74b119	0.23895682
137	0x3e684265	0.22681578
138	0x3d84cf4e	0.06484853
139	0xbd121a99	-0.035669897
140	0xbe3e12e8	-0.185619
141	0xbe84554f	-0.25846335
142	0xbe3332a1	-0.17499782
143	0x3e67ce3c	0.22637266
144	0xbe3f92d6	-0.18708357
145	0xbe5c408e	-0.21509
146	0x3df28b19	0.11842937
147	0x3e087934	0.13327485
148	0xbc0db744	-0.008649651
149	0xbcd0e610	-0.025500327
150	0xbe78defd	-0.24303813
151	0xbe8e8d55	-0.27842203
152	0xbdd75066	-0.10513382
153	0xbda99456	-0.08280246
154	0xbdcefba3	-0.1010659
155	0xbeab3663	-0.3343993
156	0x3e03b218	0.12860906
157	0xbe8a860e	-0.270554
158	0xbed8ac21	-0.42318824
159	0xbe862df3	-0.2620693
160	0x3e74b36c	0.23896569
161	0x3ebee213	0.37281856
162	0x3c9f5c80	0.019453287
163	0x3e6160f0	0.22009635
164	0xbe4e6e94	-0.2015937
165	0xbd54d258	-0.051958412
166	0xbe8296c4	-0.2550565
167	0xbf056176	-0.5210184
168	0x3ef768b5	0.48322073
169	0xbdce7ab7	-0.10082
170	0x3eb4a360	0.35280895
171	0xbf07dc52	-0.5307056
172	0xbe1bd2a4	-0.15217072
173	0xbf2c9dd1	-0.6742831
174	0xbbf17847	-0.0073690745
175	0xbef7faa2	-0.48433405
176	0x3e1110b6	0.14166531
177	0xbd9f8d12	-0.07790579
178	0xbd1481c9	-0.036256585
179	0x3e322187	0.17395602
180	0xbebff56e	-0.37491935
181	0x3f2dd1c1	0.67898184
182	0x3e7df00e	0.24798605
183	0xbeada12c	-0.33912027
184	0x3f183753	0.5945942
185	0xbf265207	-0.64968914
186	0xbe0ac0a3	-0.13550048
187	0x3bafee8e	0.005369014
188	0x3e82a246	0.2551443
189	0xbf28f2be	-0.65995395
190	0x3dbfbd47	0.09362274
191	0xbf0529f6	-0.5201715
192	0x3d8019e6	0.0625494
193	0xbe341582	-0.1758633
194	0xbe162748	-0.14663422
195	0x3ec91e08	0.39280725
196	0xbc4e5dcb	-0.012595604
197	0x3e6b63f6	0.22987351
198	0xbd7918eb	-0.06081478
199	0xbe12d0d0	-0.14337468
200	0xbedc12cb	-0.42983088
201	0x3e2bb291	0.16767336
202	0xbeda046d	-0.42581502
203	0x3c5fe76b	0.013666014
204	0x3efc9c83	0.4933816
205	0xbe0e60b7	-0.13904081
206	0x3ec62da2	0.3870669
207	0x3d41a025	0.047271866
208	0xbee06e19	-0.43833998
209	0x3caa46d6	0.02078573
210	0xbcbb1c47	-0.022840632
211	0x3c9877cd	0.018611813
212	0xbe8e6127	-0.27808496
213	0x3e6fb4c9	0.23408808
214	0xbe753749	-0.23946871
215	0x3c81a3f1	0.015825244
216	0x3e3a4269	0.18189396
217	0xbec34f08	-0.38146234
218	0xbe8363d6	-0.25662106
219	0x3c972cb6	0.018453937
220	0x3ecb6936	0.39728707
221	0xbef706c6	-0.48247355
222	0xbd67e65e	-0.05661618
223	0xbdeb86f6	-0.11500351
224	0x3e98f2c7	0.29872724
225	0xbdccdced	-0.10003076
226	0x3e666cbd	0.22502418
227	0x3eb00ea8	0.34386182
228	0xbe1d3f28	-0.15356123
229	0xbd63af99	-0.055587385
230	0x3dc05a58	0.09392232
231	0xbe89930e	-0.26870006
232	0xbe9c3578	-0.30509543
233	0xbce708a9	-0.028202372
234	0x3ef69cfb	0.48166642
235	0xbf5ef526	-0.87092817
236	0xbb98dea5	-0.004665213
237	0xbf5e27ae	-0.86779296
238	0x3e89980e	0.2687382
239	0xbf416c0a	-0.7555548
240	0xbf830a68	-1.0237551
241	0xbeb93c20	-0.36178684
242	0x3f147cc7	0.58002895
243	0x3e8fce67	0.2808716
244	0xbe69769b	-0.2279915
245	0xbd19bd28	-0.03753391
246	0xbe824c2f	-0.25448748
247	0x3e877696	0.2645766
248	0x3d04e3ff	0.032443997
249	0xbe0172a9	-0.12641396
250	0x3cdb02bb	0.0267347
251	0xbf0c444f	-0.5479173
252	0xbe587ada	-0.21140614
253	0x3e4ba990	0.19888902
254	0xbcd87773	-0.026424145
255	0xbdeb385c	-0.11485359

linear1.bias f4 [256]
0	0xbd2c281a	-0.04203043
1	0x3da1e8d9	0.0790574
2	0xbe74b9be	-0.2389898
3	0x3c0ec2a2	0.008713396
4	0xbe701d88	-0.23448765
5	0x3c0e113d	0.008671102
6	0x3d35dacf	0.044398125
7	0x3ea55e00	0.3229828
8	0xbe15eef2	-0.14641932
9	0x3e055076	0.13018975
10	0xbe0436fe	-0.12911603
11	0xbdaa8ee0	-0.083280325
12	0x3f0a8e08	0.5412297
13	0xbe9a1a9c	-0.30098426
14	0xbe1f974e	-0.15585062
15	0x3eff082e	0.49810928
16	0xbe397631	-0.18111493
17	0xbdb26107	-0.08709913
18	0xbdd329da	-0.10310717
19	0xbd175bb3	-0.036952686
20	0xbe8e1f5f	-0.2775831
21	0x3f13d216	0.5774244
22	0x3db090a0	0.08621335
23	0xbe246c16	-0.16056857
24	0xbe7b35d0	-0.24532247
25	0x3cd76bcc	0.026296519
26	0xbea6681f	-0.32501313
27	0xbdd25c68	-0.10271531
28	0x3e82d3a2	0.25552088
29	0xbec339c0	-0.38129997
30	0xbdc539eb	-0.096301876
31	0x3b045858	0.0020194259
32	0xbe47a379	-0.19495954
33	0x3d25e01a	0.040496923
34	0x3b9e55c4	0.0048320014
35	0xbe37bb3a	-0.17942515
36	0xbeb0a41b	-0.34500203
37	0xbe1070ba	-0.14105502
38	0xbe00c8f7	-0.12576662
39	0xbe539c81	-0.2066517
40	0xbe5021d8	-0.2032541
41	0xbe8652da	-0.26235086
42	0x3ed7e19d	0.42164317
43	0xbea75d4e	-0.32688373
44	0x3ea2eb76	0.31820267
45	0xbe666f5a	-0.22503415
46	0xbdf5234c	-0.11969623
47	0xbdcbf7ce	-0.09959374
48	0x3c73e141	0.014885248
49	0x3ed30dd9	0.41221502
50	0xbd3afffd	-0.045654286
51	0xbe994ff5	-0.29943815
52	0xbe4bcf1e	-0.19903228
53	0x3ca0cb65	0.019628236
54	0x3d44d54a	0.04805497
55	0xbe77469e	-0.24148032
56	0x3e9bfef6	0.30467957
57	0xbdb05cfb	-0.086114846
58	0xbd480cd8	-0.048840374
59	0xbdf21ce3	-0.11821916
60	0xbe31d645	-0.17366894
61	0x3dac2fee	0.08407579
62	0xbcf0fc91	-0.029417308
63	0xbe96846c	-0.29397905
64	0xbe1ac4ee	-0.15114185
65	0x3e0e8330	0.13917232
66	0xbeca6282	-0.3952828
67	0xbd1af72f	-0.03783339
68	0xbe01e41c	-0.12684673
69	0x3ef95e71	0.48704866
70	0x3f16e332	0.5894042
71	0xbe9158ba	-0.28388005
72	0xbea7f397	-0.32803032
73	0xbd98a464	-0.0745323
74	0xbdfcac48	-0.123375475
75	0xbf1a1086	-0.6018146
76	0xbdf05c6f	-0.1173638
77	0xbe27706e	-0.16351482
78	0xbdec3a14	-0.11534515
79	0xbd8970ca	-0.06710966
80	0xbd796a0a	-0.060892142
81	0x3e27651d	0.16347165
82	0xbe296591	-0.16542651
83	0xbe61ec6d	-0.22062846
84	0xbe080f49	-0.13287081
85	0xbe24be4c	-0.16088217
86	0x3eeed6da	0.46648294
87	0x3d367a9e	0.04455053
88	0x3dc0d3a7	0.094153695
89	0xbe319001	-0.1734009
90	0xbd058dbf	-0.032605883
91	0xbd4a74ef	-0.049427923
92	0x3b7937a0	0.003802754
93	0xbdf283ac	-0.11841521
94	0x3d39b12c	0.04533498
95	0x3e4c1b28	0.19932234
96	0xbe8d9382	-0.27651602
97	0x3dcb0ef9	0.09914965
98	0x3dceee3b	0.101040326
99	0xbc9d0996	-0.01916961
100	0xbd722ae4	-0.059122935
101	0xbe869292	-0.262837
102	0x3d64403e	0.05572533
103	0xbca2fa30	-0.01989469
104	0x3df9748e	0.12180434
105	0xbe7ae104	-0.24499899
106	0xbbd78d94	-0.0065781567
107	0xbea8483c	-0.3286761
108	0xbdfc84b1	-0.123299964
109	0xbe9cd396	-0.30630177
110	0xbd125a65	-0.03573074
111	0xbe02f8f8	-0.12790287
112	0xbc874543	-0.016512519
113	0xbe5bde2a	-0.21471468
114	0xbe8574f6	-0.26065797
115	0xbe84e2e3	-0.2595435
116	0xbe231e29	-0.15929474
117	0xbe28f920	-0.16501284
118	0xbd6926a0	-0.0569216
119	0xbd2506ce	-0.040289693
120	0xbd9b2bcc	-0.07576713
121	0xbdbe57f4	-0.092941195
122	0x3e930764	0.28716576
123	0x3d50a929	0.050942574
124	0xbe3a679c	-0.18203586
125	0x3e2b10e4	0.16705662
126	0x3e823237	0.25428936
127	0xbd1e37de	-0.038627498
128	0xbe20638b	-0.15662973
129	0xbe3a2115	-0.18176682
130	0x3eab0fa5	0.33410373
131	0x3e1e8cde	0.15483424
132	0xbd825dc5	-0.06365541
133	0xbc817d08	-0.01580669
134	0xbd078991	-0.033090178
135	0xbe846561	-0.25858596
136	0xbec39265	-0.38197628
137	0x3d22d5c9	0.039754663
138	0xbea0b781	-0.31390002
139	0xbe11b7cf	-0.14230274
140	0x3e256a6f	0.16153882
141	0x3e488af1	0.19584252
142	0x3e1362c3	0.14393143
143	0xbd820d49	-0.0635019
144	0xbd3f3dd6	-0.04668983
145	0xbe3eca6e	-0.18631908
146	0xbe7da0f9	-0.24768437
147	0x3e5767e1	0.2103572
148	0x3f2521e4	0.6450484
149	0xbea14145	-0.3149511
150	0x3e4e3f3e	0.20141312
151	0xbda656ee	-0.08122049
152	0xbe2e7618	-0.17037237
153	0x3e142394	0.14466697
154	0xbe5f7d11	-0.21825053
155	0x3cdba65f	0.02681273
156	0x3e3b3a88	0.18284047
157	0xbeab2972	-0.33430058
158	0xbe647a9c	-0.22312397
159	0x3d386676	0.04501959
160	0x3f072f19	0.5280624
161	0x3e09745a	0.13423291
162	0xbe578863	-0.21048121
163	0xbdf30d90	-0.11867821
164	0xbe13d310	-0.14435983
165	0xbda7e5bf	-0.081981175
166	0xbcfa998b	-0.030590793
167	0x3df3b485	0.11899666
168	0x3e2d3297	0.1691383
169	0x3e528a2e	0.20560524
170	0xbe904e3e	-0.28184694
171	0xbdb14e5e	-0.086575255
172	0x3d88a8c8	0.066728175
173	0x3f2f0fa4	0.6838324
174	0xbe9d6868	-0.30743718
175	0xbe8133fd	-0.25234976
176	0xbdf6bbd1	-0.12047542
177	0xbe70aeb3	-0.23504142
178	0xbedf852e	-0.43656296
179	0x3e037fae	0.12841675
180	0xbcef3e7b	-0.029204598
181	0x3c361e37	0.011115602
182	0x3e22d2fe	0.159008
183	0xbdf82d53	-0.1211802
184	0x3ed388b2	0.41315228
185	0xbe6d71c0	-0.23187923
186	0xbd23a38f	-0.039950904
187	0x3e4623de	0.1934962
188	0x3edbd868	0.42938542
189	0xbdaebb84	-0.085318595
190	0xbe09d1ad	-0.13458891
191	0xbe067a9c	-0.1313271
192	0xbe653453	-0.22383241
193	0xbe579745	-0.21053798
194	0xbe3fb274	-0.18720418
195	0x3c54ce42	0.012988629
196	0xbc982808	-0.018573776
197	0xbe2fd7cc	-0.17172164
198	0x3e4a7d5b	0.19774382
199	0xbe7a5b44	-0.24448878
200	0x3d77caa6	0.060495995
201	0xbdc7bc85	-0.09752754
202	0xbe548f37	-0.20757757
203	0xbee6d611	-0.45085195
204	0x3d7bdcc3	0.06148983
205	0xbe63143d	-0.22175689
206	0xbc30cc4f	-0.010790898
207	0x3cb56c59	0.02214639
208	0x3da92103	0.082582496
209	0xbe431a1e	-0.19052932
210	0xbeaccb31	-0.33748773
211	0xbea55843	-0.322939
212	0xbe4646aa	-0.19362894
213	0xbe25ae1d	-0.161797
214	0x3dc8981a	0.09794636
215	0xbe081ad5	-0.13291486
216	0xbe3e26a7	-0.18569432
217	0x3d98384d	0.074326135
218	0xbe2b7daa	-0.16747156
219	0x3eadfc4f	0.3398156
220	0xbe47b24b	-0.19501607
221	0x3efe149c	0.496251
222	0x3e0184e3	0.12648349
223	0xbedea331	-0.4348388
224	0xbe48511a	-0.19562188
225	0x3cb4a95d	0.022053415
226	0x3e3c6750	0.18398786
227	0xbe8bb45f	-0.2728605
228	0xbdd0f40a	-0.10202797
229	0xbe920fd0	-0.2852769
230	0xbe036241	-0.1283045
231	0x3f2ca794	0.67443204
232	0x3ecd37d6	0.40081662
233	0xbe8294c5	-0.25504127
234	0xbeb1c491	-0.3472028
235	0x3e183836	0.14865193
236	0x3e329a57	0.17441688
237	0x3e353fb6	0.17700085
238	0x3dbb1010	0.09133923
239	0x3bccb698	0.006247353
240	0xbd9d3f2f	-0.07678067
241	0x3c3d15bf	0.011540829
242	0xbec3750b	-0.38175234
243	0x3e894f59	0.2681835
244	0xbe234d07	-0.15947352
245	0xbe99bbcd	-0.30026093
246	0xbee4b9d4	-0.44673026
247	0x3dc6db2e	0.09709774
248	0xbc8c62e8	-0.017137006
249	0xbdecbfbb	-0.11560007
250	0xbea7ea95	-0.3279616
251	0x3e9e3117	0.30896828
252	0x3f1004e0	0.5625744
253	0xbd836473	-0.064156435
254	0x3e88b7f5	0.26702848
255	0xbe84ec4c	-0.2596153

linear2.weight f4 [3, 256]
0	0xbe85c0b6	-0.2612359
1	0x3e3b1d64	0.1827293
2	0xbc4a8228	-0.012360133
3	0x3e9fbcd3	0.3119875
4	0xbf4ca8f5	-0.7994531
5	0x3c8b0c32	0.016973589
6	0xbd1c5132	-0.03816337
7	0x3e0290c6	0.12750539
8	0xbe49b6d0	-0.19698644
9	0x3ecb6bc5	0.3973066
10	0x3ec76a2c	0.3894819
11	0xbe0cd8db	-0.13754599
12	0x3eabb6f1	0.3353801
13	0x3d2d4640	0.042303324
14	0xbe6a1717	-0.2286037
15	0x3ef5c561	0.4800215
16	0xbf41472d	-0.7549923
17	0xbe6a994e	-0.22910044
18	0xbf1198ad	-0.5687359
19	0xbd785458	-0.06062731
20	0xbdd02be1	-0.10164619
21	0x3f1a0195	0.60158664
22	0xbde68b51	-0.11257041
23	0xbe0b37cc	-0.13595504
24	0xbd5e12ad	-0.05421703
25	0xbe5264e3	-0.20546298
26	0xbe7c8145	-0.24658687
27	0xbbb018be	-0.0053740432
28	0x3e334d2b	0.17509906
29	0x3d082295	0.033236105
30	0xbea6d73d	-0.3258609
31	0x3ea9b1c3	0.33143434
32	0xbeba9fa3	-0.36449918
33	0x3ee3e87e	0.44513315
34	0xbc807a5e	-0.01568335
35	0xbde51d38	-0.11187214
36	0x3d3ef9ea	0.046625055
37	0xbe3754dc	-0.17903465
38	0x3d8fa4c2	0.07013847
39	0xbec94831	-0.3931289
40	0xbec9845c	-0.39358795
41	0xbe72218e	-0.23645613
42	0x3e510b7b	0.20414536
43	0xbe5f9a86	-0.2183629
44	0x3ebf53a4	0.373685
45	0xbeae4aba	-0.34041387
46	0xbcef3b73	-0.029203152
47	0xbc12a044	-0.008949343
48	0xbee687d3	-0.450255
49	0x3e2e212e	0.17004845
50	0x3ba23b1f	0.0049508954
51	0xbe3c68f1	-0.18399407
52	0xbd35302f	-0.044235405
53	0x3e4506f1	0.19240929
54	0xbe89daab	-0.26924643
55	0xbe454711	-0.19265391
56	0x3e2af1d2	0.1669381
57	0x3d8c0cf8	0.06838411
58	0xbf112078	-0.5669017
59	0xbc11232f	-0.008858486
60	0xbf08a9ae	-0.5338391
61	0x3e68abb9	0.22721757
62	0x3ce6d8c3	0.028179532
63	0xbc2da247	-0.010597772
64	0x3ec2b127	0.38025782
65	0x3ea3bc38	0.31979537
66	0xbc665ee1	-0.014060707
67	0xbe464133	-0.19360809
68	0xbeb6f7a5	-0.35735813
69	0x3ed9fa73	0.4257389
70	0x3eacfb49	0.33785465
71	0xbe608160	-0.21924353
72	0xbc338cfd	-0.010958907
73	0x39ebe851	0.00044995782
74	0x3ea48efb	0.32140335
75	0xbe7d1ca9	-0.24717964
76	0xbdb70487	-0.089364104
77	0xbc900003	-0.01757813
78	0xbe9779a4	-0.29584992
79	0x3ea222ff	0.31667325
80	0xbe30447e	-0.17213628
81	0x3d77f9da	0.06054101
82	0x3d08aded	0.033368994
83	0xbdc43f4b	-0.09582385
84	0xbb7f3b21	-0.0038945156
85	0xbc42d2fa	-0.011891121
86	0x3eae1d1a	0.34006578
87	0xbcee6044	-0.029098637
88	0x3efe77bf	0.49700734
89	0xbd620ffb	-0.05519102
90	0x3e1a87d7	0.15090881
91	0x3bad57a6	0.0052899895
92	0x3c050177	0.008118025
93	0xbe2c7062	-0.16839746
94	0x3ce5ee21	0.02806765
95	0x3e8b03a9	0.2715123
96	0xbe5387b2	-0.20657232
97	0x3e854ee1	0.26036742
98	0x3db95031	0.090484984
99	0xbc9cdf81	-0.019149544
100	0xbe6f8763	-0.2339149
101	0xbc50b341	-0.01273805
102	0x3d096098	0.033539385
103	0xbe68eff2	-0.22747782
104	0xbd9edee0	-0.07757354
105	0xbe368850	-0.17825437
106	0x3db6b325	0.08920888
107	0x3d584bcf	0.05280667
108	0xbc07f817	-0.008298895
109	0xbe496d99	-0.19670714
110	0xbd762156	-0.060090385
111	0xbe49478f	-0.19656204
112	0x3e289639	0.16463555
113	0xbd60eee8	-0.05491534
114	0xbed930a0	-0.4241991
115	0xbe6b2840	-0.22964573
116	0xbea5c5c5	-0.3237745
117	0xbdb9cd79	-0.09072394
118	0xbe80ff30	-0.25194693
119	0xbdf71bb5	-0.120658316
120	0xbcfe2651	-0.03102413
121	0xbd70445e	-0.05865895
122	0x3e5471e8	0.20746577
123	0xbe9e2a97	-0.30891868
124	0xbdb06b17	-0.08614176
125	0x3eaa6bfd	0.33285514
126	0x3e5f8dc0	0.21831417
127	0x3e0e7b77	0.13914286
128	0xbe03c71b	-0.12868921
129	0xbe93f8cf	-0.28900763
130	0x3d79eb69	0.06101552
131	0x3d10891c	0.035287008
132	0x3e71b72b	0.2360503
133	0x3dc0ecd8	0.09420174
134	0xbe4aa353	-0.19788866
135	0xbd1f051d	-0.038823236
136	0xbe21eb41	-0.15812398
137	0xbe9dc7e5	-0.3081657
138	0xbe2f9490	-0.17146516
139	0xbe8d361d	-0.27580348
140	0x3e936ecd	0.28795472
141	0x3d9db12b	0.07699808
142	0xbee5f503	-0.44913492
143	0x3ea646d5	0.32475916
144	0xbe236f4e	-0.15960428
145	0x3e18b974	0.14914495
146	0xbe8abe78	-0.2709844
147	0x3e218dd4	0.1577676
148	0x3e41583c	0.18881315
149	0x3d8f4caf	0.06997048
150	0x3e3fcdf8	0.18730915
151	0xbd8035fb	-0.06260296
152	0xbd17e697	-0.037085142
153	0x3da13611	0.078716405
154	0xbde9d350	-0.11417258
155	0xbe848c26	-0.25888175
156	0x3f089840	0.53357315
157	0xbe5ff34b	-0.21870153
158	0xbecad840	-0.3961811
159	0xbd10ef75	-0.035384614
160	0x3ed6d507	0.41959402
161	0xbf0a4e08	-0.54025316
162	0xbe6ecd5a	-0.23320523
163	0xbe10370b	-0.14083497
164	0xbda70393	-0.081549786
165	0xbed874e4	-0.4227668
166	0xbed30a0f	-0.41218612
167	0x3dad492f	0.08461224
168	0x3e9a69cd	0.30158845
169	0x3eaaec99	0.33383635
170	0xbe6b6ca7	-0.22990666
171	0xbc569d70	-0.013099059
172	0x3ebd5ec8	0.36986375
173	0x3ebb0d30	0.365335
174	0xbcc5c66a	-0.024142463
175	0xbd90f4d6	-0.07077949
176	0xbf31190d	-0.6917885
177	0xbec45cfa	-0.38352185
178	0xbe284f3e	-0.16436478
179	0x3d00c205	0.03143503
180	0xbd481301	-0.04884625
181	0xbdcbc998	-0.0995056
182	0x3c028b7c	0.007967826
183	0xbec3e9cf	-0.3826432
184	0x3e161ce8	0.14659464
185	0xbbb3aa6e	-0.0054829633
186	0x3c8f9d07	0.017530931
187	0x3ebe1009	0.3712161
188	0x3eceab7a	0.403652
189	0x3e859881	0.26092914
190	0x3c284dbe	0.010272441
191	0xbe303984	-0.1720944
192	0xbe47c7ca	-0.19509807
193	0xbeb9deeb	-0.36302885
194	0xbe57a0c6	-0.21057424
195	0xbce9f519	-0.028559254
196	0x3c824276	0.015900832
197	0xbe4a055a	-0.19728604
198	0x3e6df700	0.23238754
199	0x3db0428d	0.086064436
200	0xbdd843ee	-0.105598316
201	0xbf02a67c	-0.51035285
202	0x3d1f536c	0.038897917
203	0xbe772667	-0.24135743
204	0xbebcf961	-0.3690901
205	0xbf0d2594	-0.55135465
206	0xbe9c744d	-0.3055748
207	0x3c22e6fd	0.009942767
208	0x3eff9ba0	0.4992342
209	0xbe1d8be1	-0.15385391
210	0xbe3e4755	-0.18581899
211	0x3d011c1a	0.03152094
212	0xbe03dd42	-0.12877372
213	0xbd82f12a	-0.06393655
214	0x3e1712ee	0.14753315
215	0xbf2743c0	-0.65337753
216	0xbeb626c7	-0.3557646
217	0x3cf145bc	0.029452197
218	0xbf5149ba	-0.8175312
219	0x3ed49b0d	0.41524544
220	0x3ec21d3c	0.3791293
221	0x3eb3b029	0.35095337
222	0x3e5b7a3f	0.21433352
223	0xbe65a94b	-0.22427861
224	0xbe87f8d5	-0.2655703
225	0x3daa510d	0.083162405
226	0x3db598b6	0.08867018
227	0xbdb1d7ae	-0.08683716
228	0xbdbc5ea2	-0.09197737
229	0xbb5f6f35	-0.0034093384
230	0xbe114fa1	-0.14190532
231	0x3e5ffbe3	0.21873431
232	0x3e85737a	0.26064664
233	0x3b0732c0	0.0020629615
234	0xbd9f88cd	-0.077897646
235	0x3d96f832	0.07371558
236	0x3edada1f	0.42744538
237	0x3d10b9e3	0.035333525
238	0x3ec0892d	0.37604657
239	0xbeaa87c3	-0.33306703
240	0x3e44c1e0	0.19214582
241	0x3eb6b61b	0.3568581
242	0xbd6b677e	-0.057471745
243	0x3ec87f35	0.3915955
244	0x3e80594f	0.25068137
245	0xbc70a360	-0.014687389
246	0xbecff987	-0.40620062
247	0x3e847525	0.25870624
248	0xbeb9d165	-0.36292568
249	0xbdee48d4	-0.116349846
250	0xbe1affe8	-0.15136683
251	0x3ee8da2e	0.45478958
252	0x3e45aab6	0.19303402
253	0xbd3b52c6	-0.045733236
254	0x3eb46f7e	0.35241312
255	0xbd211908	-0.039330512

linear2.bias f4 [3]
0	0x3e8813f8	0.26577735
1	0xbc1bcfbb	-0.009509976
2	0x3c858236	0.016297441
