models/model_20250315_184224.pth (torch, 17600 bytes, 4 tensors)

linear1.weight f4 [256, 11]
00000000: bfde ce3c df37 253e ff54 9a3e 2d9c 5f3e
00000010: 3f7e 373e bed4 903c 0f81 4b3e 9af3 a23e
00000020: b912 6b3e c90e 943e f6bd 2fbe b21d e9bc
00000030: 19ef efbd b907 ec3d f4d6 97bc d70a b33d
00000040: b3bf 96be 5ef9 7abd 5f0c 79bd e09c c13d
00000050: d8c9 ab3d 6ae6 8f3d 7329 6c3e 4c3a 47be
00000060: 647c 893e 26f4 d33d 92bd 323a f60f 77bc
00000070: 60b3 1d3e e363 553e 90cc 0c3d 7c96 3abe
00000080: 98a4 fe3d 9b2b 87be 99f3 adbd 2e70 d23e
00000090: 133a 47be 08ca 493d 35fb 5dbe 2048 8c3e
000000a0: 3082 abbd 8a6f 95bd 4d71 173c c6d4 df3d
000000b0: 7eb5 e93d 52a5 36be 5f3b 8ebe 7d99 4b3e
000000c0: 4624 96be 5fa6 13be 5165 90be 9a81 c2be
000000d0: cfef 883d ac69 8a3e 5200 cb3c e4f3 ddbd
000000e0: cf5d b8be d703 c93e 5d22 2a3e 8c05 bfbd
000000f0: a2a0 8b3d 4f26 243e 474f 523e 4ab2 f23c
00000100: f804 debd 38a4 7fbe c610 54be 8a1d 69be
00000110: 0a6c 1cbd bb39 4e3e 7037 2f3e 8306 99be
00000120: 0fd6 0a3e f006 5a3d a0fe 413d 5913 503e
00000130: 9ed3 bbbe 43ab 03be 5aa6 e43d d693 7cbe
00000140: 821a 54be afe5 1dbe 2457 7ebe 1ac1 f0bd
00000150: 622a f5bd a9eb 833e aaa1 203d 9c07 9a3e
00000160: 692a 50be 8f39 a5be 7a47 d23e d291 7fbe
00000170: 7cf6 c93e 5225 5ebe 1459 b4bd 89a2 4f3e
00000180: fc8f 163d e5fd ffbd f3da e73d b7e6 cabd
00000190: a6bb e43d e521 91be 460f ccbd 838a 46be
000001a0: 4f05 c4bd 4b21 f03d b98c 763e 6e93 003e
000001b0: dbcc 5dbe 44cf 0bbd c841 943e 0382 cfba
000001c0: eca6 5bbc 20f1 40bd 9856 5e3e 0d90 723d
000001d0: 83e9 ab3e b82b bc3e a49c 8c3e d764 bc3e
000001e0: fc5a 643e 735d 0cbe fe6d a03e f7b3 b2bc
000001f0: 17e0 e53d 5b72 423e 39d2 7f3e 3a10 123d
00000200: 2312 b43e 8288 9d3e 2765 973d ac9d 1d3e
00000210: c472 493e cc9f 4ebe e075 393e e368 d33d
00000220: ee6b 9d3e ff99 113e 2ef1 3fbe 0608 41be
00000230: f7b5 c53d 7593 81be c88e 82be d3ae e03d
00000240: 70c0 903e 4a60 633e 1daa 7f3d 8445 0bbe
00000250: a186 29be de65 ffbc 42f1 853e 6f45 523d
00000260: e591 a93e 787d 15be d5bd 723e af20 4d3e
00000270: 7097 c2be fbc1 983d fb7a 2b3d 8d06 173d
00000280: 52f3 633e 31c2 9b3e 5de5 8b3e 4aa0 973c
00000290: 57f2 4a3e 324b a8be b892 98bd 94f5 85bd
000002a0: 028b 683e 850c 593e da2b 83be 1acc a9be
000002b0: 852b 14be 4795 64be 3a17 5c3e 9d08 ae3d
000002c0: b544 92be 27d0 ac3e db7a 97be d53c 003e
000002d0: 9d55 733e cebc b23d 27c5 c43d 4cfb af3d
000002e0: c313 8e3e 7aec 14be 57f0 90bd b432 abbe
000002f0: 57ca 1dbe 16db 7c3e c25c 353e 9859 553d
00000300: 6de1 9f3d 13f6 cf3d 574a 063e b9f2 a8bd
00000310: 68aa e4bd d604 8c3e 41e6 f3bd 8a6a 433c
00000320: 96d4 483d 2183 52bd 3ac6 d0bc fc45 193e
00000330: 342d adbc 8786 b03d 845c a43e 4f5e 4a3e
00000340: cd20 df3d ec6f 7b3e d03f c43e d38a d8bd
00000350: f8dd 02bd d08e fd3d 5e36 afbd 27d6 993e
00000360: 7c0c 5bbc b100 943e da98 39bd 540c 0a3e
00000370: d470 41be 9b92 45bb 73fe 863e 0a94 d8bd
00000380: fc9d 1f3e 840c c3bd b65d 8fbd 3efa a3bd
00000390: 3f08 0ebe 8bb8 71be b3b3 92be 037f c33e
000003a0: dc62 253e faf2 eb3d b320 c0bd ed48 52be
000003b0: 6bb4 5fbe 6cc3 243e 6304 953e 6f48 033d
000003c0: 1f19 933e f3ad 293e 124a ad3e ea02 dabd
000003d0: 6b42 34bd b948 253e 6a00 3ebe b927 4dbe
000003e0: 8224 5c3e f57b 24be dd32 153d d0bf d83d
000003f0: 2fe3 85be 2e68 4d3b 0298 32be b676 bb3c
0.025252698 0.16134594 0.30142972 0.2183692 0.17919253 0.017679568 0.1987345 0.31826478
0.22956361 0.2891753 -0.17162308 -0.028456543 -0.11715526 0.115249105 -0.018535115 0.08742302
-0.2944313 -0.06127297 -0.060802814 0.0945375 0.08388108 0.0702637 0.23062687 -0.19455832
0.26852715 0.10349302 0.00068184093 -0.015079489 0.15400457 0.20838885 0.034374774 -0.18221468
0.124337375 -0.26400456 -0.08493728 0.4110121 -0.19455747 0.049264938 -0.21677859 0.27398777
-0.08374441 -0.07296665 0.009243322 0.10929255 0.1141157 -0.17836502 -0.27779672 0.1988277
-0.2932455 -0.14418934 -0.28202298 -0.37989503 0.06686365 0.27033746 0.024780426 -0.10837534
-0.3600907 0.39260742 0.16614671 -0.0932723 0.06817748 0.16030239 0.20538054 0.02962603
-0.108407915 -0.24964988 -0.20709524 -0.22765175 -0.03818897 0.2013921 0.17110991 -0.2988778
0.1355822 0.053229272 0.04736197 0.2031988 -0.3668489 -0.128583 0.111645415 -0.2466577
-0.20713237 -0.15419649 -0.24837929 -0.11755581 -0.119709745 0.25765732 0.039216675 0.3008393
-0.20328678 -0.32270476 0.41070157 -0.2495797 0.39445865 -0.21693924 -0.08806053 0.20276846
0.036758408 -0.124995984 0.11321058 -0.099072866 0.111686036 -0.28346172 -0.09963851 -0.19388776
-0.09571325 0.117251 0.24077119 0.1255624 -0.21660177 -0.03413321 0.28956437 -0.0015831593
-0.0134064965 -0.047104955 0.2171272 0.05921941 0.33576593 0.36752105 0.27463257 0.36795685
0.22300333 -0.13707523 0.31333917 -0.02181433 0.11224382 0.18988936 0.24982537 0.035660006
0.35170087 0.3076821 0.0739234 0.15392178 0.19672686 -0.20178145 0.18111372 0.1032274
0.30746406 0.14218901 -0.18744346 -0.18850717 0.09653848 -0.25307813 -0.25499558 0.10970845
0.28271818 0.222047 0.062418092 -0.13600737 -0.16555263 -0.031176504 0.26160628 0.05133575
0.3311912 -0.14598644 0.23705228 0.20031999 -0.38006163 0.07458874 0.04186533 0.03687148
0.22260788 0.30421594 0.27323428 0.018509049 0.19819008 -0.3286987 -0.074498594 -0.06540981
0.22709277 0.21196182 -0.25619394 -0.3316353 -0.14469726 -0.2232257 0.21493235 0.084977366
-0.28568044 0.33752558 -0.2958592 0.12523206 0.23763128 0.08727418 0.09607916 0.08592853
0.27749452 -0.14543334 -0.07077091 -0.3343712 -0.15409218 0.2469295 0.17711166 0.052087396
0.078066684 0.10154357 0.13114296 -0.08249421 -0.11165315 0.2734744 -0.11909152 0.011927256
0.049030863 -0.051394586 -0.025485147 0.14968103 -0.021139719 0.08619409 0.32101834 0.19762538
0.10894928 0.24554414 0.38329935 -0.105733536 -0.031949967 0.12380755 -0.085552916 0.30046198
-0.013369676 0.28906778 -0.045311786 0.13481265 -0.18890697 -0.0030147198 0.26366004 -0.10575111
0.1558761 -0.095238715 -0.07000296 -0.08006714 -0.13870333 -0.23605554 -0.28652725 0.3818284
0.16150993 0.115209535 -0.09381237 -0.20535631 -0.21846168 0.16090173 0.2910491 0.0320515
0.28730103 0.16570263 0.33845574 -0.10645087 -0.044008654 0.16141023 -0.18554845 -0.20034684
0.21498302 -0.16062911 0.03642546 0.1058346 -0.2614989 0.0031342614 -0.17440799 0.022883754

linear1.bias f4 [256]
00000000: 49d6 94bd 2cc0 1ebe 3dbb a7be 265b 443d
00000010: c4cc 353e ce25 8b3e 4190 003e d7af e13c
00000020: bc02 52bd d6ac 9abe 61db 2abe 1fe4 00bc
00000030: 7ac5 83be e2a2 ab3e 9563 6dbe 042f 703e
00000040: 407b 373c 090f b43d 2aa1 e03d 2dc8 08be
00000050: 44af 163e 6a12 913e 7501 a83d c13c d23d
00000060: a21e b13c 6e83 eabd 8b04 913e dce4 5e3d
00000070: d868 f8bd cef0 c23d ce3b 6abe e0f5 d73d
00000080: bb72 6c3a 65ab 64bd 6df6 06be 9ac4 adbd
00000090: bec6 8b3e b598 823e 8201 7d3e f8e9 a3be
000000a0: 104d e73d 54df c13c 7c36 04be 681e 6fbd
000000b0: 47c5 8dbe 39d6 97be 7d2f 3cbe eb9e a4bd
000000c0: cf00 1fbe c08b f03d 1ac3 4fbe d2cf 2f3e
000000d0: 6dc3 1cbe a7c3 4a3c 6643 893e 86aa 003e
000000e0: 72ba f2bd 56b6 793e e444 87be 73c0 a03e
000000f0: 7a86 8dbd 344c 763e b21b 523e 1400 1dbe
00000100: 4e47 18be bdb4 73be 7e1a 023e 03ea dc3d
00000110: b490 793e 73ad 2a3d 3137 f4bd 7c51 08bd
00000120: e75c 8dbe cee0 1bbe 293f 64be eea7 8e3e
00000130: f142 9f3e f243 1bbe 1375 b2be 3b47 ed3d
00000140: ca10 37bb 5814 113d fbf9 b53d a0f2 55be
00000150: 2cef 9ebd 79ca 58bd 8e7f 68be 701a 7ebe
00000160: dc83 b33e ed2f 82bd f4d1 e4bd 8d62 1bbe
00000170: f4c0 97be 2c93 a4be af0c 59be 870c 9c3e
00000180: 4eb0 3abd dcb6 eebb 4e13 613e 3398 5c3e
00000190: d4ed 753c 42c4 c73c 2166 f43d 3a66 25be
000001a0: 56e8 9dbe a181 33be a9df fdbd 3dcf f83c
000001b0: 00f9 04be 74b7 6ebe e9ef d2bc 7a0c a73d
000001c0: 4234 82be f330 08be 7eca 7abe 7556 713d
000001d0: b1e3 4e3e 8580 7e3e 4769 97be 0fdb 853d
000001e0: 6226 513e 3da8 cfbc 39a7 cb3d 2c21 823e
000001f0: e0a8 91be 7ae2 6f3e b1c7 943d 9d47 7dbe
00000200: 2d6c 95bd f024 80bd f70f 903e 10ec fd3d
00000210: 8408 893e e49b 4e3b 9a10 a93e 18e3 453e
00000220: dc8b 75be cafc 2bbe 01bf 8bbe 7162 5d3e
00000230: 8c9f b4bd 03c0 e7bd 8669 103d 8567 7ebd
00000240: 64f6 543e 4fe9 133d e045 693e 8a69 aebd
00000250: 331e 543e c8fc 5c3e 623e 69be 4933 383e
00000260: b76e 94be f46b 933e 2b59 08be 6efa 9e3e
00000270: 95d6 c23e 6575 c73e 8e8d 0a3e 8051 49ba
00000280: 1527 993e 4d2c 893e e70d bb3e 7022 bb3e
00000290: 2f19 60be 0ac6 bc3d 61f1 4d3e f93e 6fbd
000002a0: 84ce 773e 3d4c cc3d 9632 593e 32e4 fbbc
000002b0: c94a a83d e789 20be 76e5 c33c 3c60 debd
000002c0: 2957 34be 5aec 0cbd 98da b43e 14ca 36be
000002d0: 8b4b 063e 7a03 43be 7d9f a1bd 0956 d6bd
000002e0: 213a 463e f48d 5c3d ffa2 463d 8cbf 1cbe
000002f0: 421c 973e d189 143e bbfc 1abe 0e00 ad3c
00000300: 12f9 a83e 8905 e83d b9c8 573e 23c9 aa3e
00000310: ac75 6cbe 45c0 ad3e aa64 f6bd a543 033e
00000320: d2b4 9a3d 4498 72be 63b1 bb3e 5065 80be
00000330: 8b81 97be fcad aabd 9f48 973e 3935 243e
00000340: b101 603e 72c9 893e cfdb 1abe 8acc 8e3e
00000350: 8551 05be fe2b f6bd 3ca1 62be 14b6 e33d
00000360: 48a6 c0bd 2790 f1bb 2476 523d 5b4e c33d
00000370: 9dee 2e3e fbca 083e 896a fb3d 07ce 843e
00000380: 0a86 373e 5d45 4fbe c8e9 43bc 14e3 573e
00000390: f178 99be 72c0 6e3e e843 d43e 71a8 f83c
000003a0: 1ce1 1f3e d7ec d3bd 7561 823e 9446 eb3d
000003b0: 72da cf3d b2df f3bd 8619 383d 261c 813d
000003c0: 1574 993e 1b87 00be 9aa0 abbd 573c 623c
000003d0: 5ec1 ae3e 3e59 89bd 6fe5 91bc e454 fabd
000003e0: a585 b03d 8e16 67bc cc94 5cbe 967f 913d
000003f0: 2229 42be 8c0f 4f3c 1e7d e03c 0a6d b13e
-0.07267434 -0.15502995 -0.3276004 0.04793849 0.17753893 0.2717728 0.12555028 0.027549667
-0.05127214 -0.30209988 -0.16685249 -0.007866888 -0.257366 0.33522707 -0.23182519 0.23455435
0.011198819 0.0879193 0.109682396 -0.13357611 0.14715296 0.2833436 0.08203403 0.10265494
0.021621052 -0.114508495 0.2832378 0.054417476 -0.12129372 0.09518586 -0.22874376 0.10544944
0.0009019782 -0.055827517 -0.13179941 -0.084847644 0.27300066 0.2550713 0.24707606 -0.32014441
0.112939954 0.023666061 -0.12911409 -0.058378607 -0.27689573 -0.29655626 -0.1837749 -0.08038124
-0.15527652 0.11745405 -0.20289269 0.17169121 -0.15308924 0.012375749 0.26809233 0.1256505
-0.11851968 0.24385962 -0.26419747 0.31396827 -0.06910415 0.24052507 0.20518377 -0.15332061
-0.1487095 -0.23799415 0.12705418 0.10786822 0.24371606 0.04166932 -0.119245894 -0.033280835
-0.2760994 -0.15222475 -0.22289719 0.27862495 0.3110576 -0.15162638 -0.34854946 0.11585852
-0.002793359 0.035419792 0.088855706 -0.20893335 -0.07760462 -0.052927468 -0.22704908 -0.24814773
0.35061538 -0.06356797 -0.11172858 -0.15174313 -0.296394 -0.32143533 -0.21196245 0.30478308
-0.045578294 -0.007284982 0.2198002 0.21542434 0.015010316 0.024385575 0.11933542 -0.16152278
-0.3084132 -0.17529918 -0.123961754 0.030372256 -0.12985611 -0.2331217 -0.025749164 0.081566766
-0.25430495 -0.13299923 -0.24491307 0.058920342 0.20204045 0.24853714 -0.29572508 0.06535923
0.20424798 -0.025348777 0.099440046 0.25415933 -0.28449154 0.23426238 0.072646506 -0.2473435
-0.072960235 -0.06257045 0.2813718 0.12398541 0.2676431 0.0031526024 0.33020478 0.1932491
-0.23979133 -0.1679565 -0.27294162 0.21619584 -0.08819494 -0.1131592 0.035256885 -0.062110443
0.20797116 0.036111172 0.22780561 -0.08516224 0.20714645 0.21580803 -0.22777703 0.17988314
-0.2899072 0.287933 -0.13315265 0.31050438 0.38054338 0.38956752 0.13530561 -0.0007679686
0.2991263 0.2679161 0.36534044 0.3654971 -0.21884607 0.092174605 0.2011161 -0.058409665
0.24199873 0.09975479 0.21210703 -0.03074846 0.08217389 -0.15677606 0.023913126 -0.10858199
-0.17611374 -0.03440509 0.35323024 -0.17850524 0.13114755 -0.19044295 -0.07891748 -0.10465629
0.19358112 0.053846315 0.04849529 -0.15307444 0.29513747 0.14505698 -0.15135472 0.02111819
0.33002526 0.11329181 0.21072663 0.3335658 -0.23091763 0.33935753 -0.12030919 0.12818773
0.0755402 -0.23690897 0.36658773 -0.25077295 -0.2959102 -0.08333966 0.29547593 0.16035928
0.21875645 0.26911503 -0.15122913 0.27890426 -0.13019378 -0.120201096 -0.22131819 0.11118713
-0.09406716 -0.0073719206 0.0513822 0.095364295 0.17083211 0.13358681 0.12276179 0.25938436
0.17922226 -0.20241304 -0.011957593 0.21082717 -0.29975083 0.233156 0.41458058 0.030353757
0.15613216 -0.10347908 0.2546498 0.11488071 0.10149087 -0.11907901 0.044946216 0.06304197
0.29971376 -0.12551539 -0.08380242 0.013808331 0.34131902 -0.06706475 -0.017809598 -0.12223223
0.08619241 -0.014104499 -0.21541137 0.07104413 -0.18961003 0.012637984 0.02740341 0.34653503

linear2.weight f4 [3, 256]
00000000: a5f9 0dbd 9719 023c 6fa1 4ebd 405a 0f3e
00000010: 97bb 09be b672 39bd 7ffc 38bd 3181 e53d
00000020: 03b4 953d d33b 10bd ffe2 01be 1c23 d43b
00000030: bc7b d1bc f453 c4bd 5f18 99bd b409 ce3d
00000040: b36d 1a3e aae2 ce3d fd41 40bd 86c1 b3bd
00000050: dc62 6cbd e31b dabd 499e 16be 1a8b 5f3d
00000060: c978 d0bd 3afd acbd 07aa babd 0a2a c23d
00000070: 86ce 903c 2446 4dbd 3c0a 6cbd 915a 14bd
00000080: 33ab cf3c 7bc4 a93d 38db e2bb a26b 40bd
00000090: 33f9 07be 6b87 443b 6bf3 0ebe 34ce 543d
000000a0: 71f5 2dbe d56d 42bd 1f73 363c c64c 8abd
000000b0: 788f a9bd 4458 27bd 82b7 07bc 7ba0 e53d
000000c0: ecb6 b1bb e4f1 5a3e f515 3fbc e960 84bd
000000d0: 2254 a3bd 338d 0bbe ae67 4bbc c90b d23d
000000e0: 8240 9dbd 3885 e3bd 5ee4 ea3c 95a4 09be
000000f0: 71f9 87bd ee7b 00be f81d 743c ee01 4c3c
00000100: 8e7a 0c3d 1446 f1bd d2b1 0fbe a898 60bc
00000110: ec87 0abe 9182 013d d524 593d d1a6 8c3d
00000120: b4cb dcbd 0790 0bbe d69e d63c 1e47 70bc
00000130: 85b5 a7bd 6e01 e9bb 214b 03bd 1009 a8ba
00000140: b4bb cebd 5b84 1cbe dae6 a7bd 3969 433c
00000150: 523c 90bd b33c d5bd d4f4 713d daab dcbc
00000160: 64c1 f5bd 3421 0b3c a3ed f8bd 8697 09be
00000170: 214b 4bbd e175 853c 632a 74bd d763 473d
00000180: 8514 d3bd bdab 053e b90c 2abd be48 c4bd
00000190: d882 99bd b467 9a3d a318 56be d794 7abd
000001a0: b4d9 963c 9980 a9bd 59e3 453d 23fe 6ebd
000001b0: ad00 fbbc 6f06 213a 5de0 443d bdbe e0bd
000001c0: 827d 95bd 7e29 78bd 4b1f 083d ef29 033e
000001d0: 9bdc 99bd 904e 7cbd 28f9 4d3c c5b9 aabd
000001e0: 365e 68bc 20df 1ebe 48c1 b3bd e0da a3bd
000001f0: 336a ffbc b2a0 0d39 c037 35be b16c 73bc
00000200: 0cd5 9cbd 4aeb 7cb8 574c ddbd aa78 94bc
00000210: e70a 7a3d 5da5 d4bd 1d0a 19be e536 4dbd
00000220: c4b1 793d d3b0 51bd 3c55 48bd 8fd2 fc3d
00000230: 2cd0 313d 06ac 15be e3ec 06be c802 9f3d
00000240: 65b2 fbbc 8efb 90bd a1a4 753c c19d 89bc
00000250: aa7a eebd 3e5d 08be 974c d13d 156d debd
00000260: f37b 063b 5542 7f3d 2c19 913c 4107 5bbd
00000270: 0735 c5bd e582 68bd ae30 c03b f104 e2bc
00000280: 873e e6bd 6ba9 95bc 1925 9dbd 5946 ccbd
00000290: 5925 c33c cb13 66bd 3504 3abd 5933 9a3d
000002a0: c805 b63d 5a7d 81bc b4d1 fabd 8db3 6f3c
000002b0: 7ec2 fa3d ec3c ae3d 0c02 d0bd f320 e2bc
000002c0: 153f 83bc cc17 143d 9463 083e 1eca c43c
000002d0: df08 38be 8598 ae3d 0948 18be 97bd 213e
000002e0: 6a3c 343d d72b 33bd 0786 903d dff4 7b3e
000002f0: d89b 8bbd 7f22 8f3b 6b0f 08be 30ec a53d
00000300: 8a9a cbbd 851c d4bd 7d88 21be 82af 11be
00000310: c936 a23d 4836 41bd 2bed bc3d 8c83 cfbd
00000320: f2b1 2ebd cccc 7f3c cacc efbd 7a5e 8f3d
00000330: 1e94 213d 0bb7 e9bd 2e4e 95bd 5f7b 91bd
00000340: 8528 733d 7f4a 403d 41e8 1dbd b3e5 23bd
00000350: 5260 1b3d a2a7 8d3c df7c 1dbe 780d b2bd
00000360: 5053 bdbd 208b c5bd d144 9dbc 499c 2b3d
00000370: 68be e9bd 4532 093c 81fa 35bd 56b0 f8bd
00000380: eb27 2b3d 14a8 433d 11c5 a33d 4d88 9fbd
00000390: 84e2 cf3c 4e5a d8bb c221 afbd 9578 8cba
000003a0: 9a12 18be 4298 d93c 8562 69bd 0b79 1ebc
000003b0: 3bdb c5bd f074 423c 29e7 063c 0e54 38bd
000003c0: bb19 a3bc 441f 7cbc 24dc 57bd 10be d4bd
000003d0: f3f0 4fbc fbcc 7bbd 20c2 3fbd 6444 6c3d
000003e0: 8e14 36be 276b 10be faf9 6c3d 2765 30bd
000003f0: df49 05be 1cf7 cfbd 7eca cbbd a3b1 a6bd
-0.034661908 0.007940671 -0.050446924 0.13999271 -0.13450466 -0.045275412 -0.045162674 0.11206282
0.07309725 -0.035213303 -0.12684248 0.006473912 -0.025571696 -0.09586325 -0.074753515 0.100604445
0.1508091 0.101018265 -0.04693793 -0.08777146 -0.057711467 -0.1064985 -0.14708818 0.054576017
-0.10179288 -0.08446737 -0.091144614 0.094806746 0.017676603 -0.05011572 -0.057626948 -0.036219183
0.025350189 0.08289429 -0.0069231056 -0.046977647 -0.13278656 0.0029987942 -0.13960044 0.051954463
-0.1698816 -0.047468025 0.011135845 -0.067529246 -0.082793176 -0.04085566 -0.008283498 0.1121225
-0.0054234173 0.21381336 -0.01166295 -0.06463797 -0.079750314 -0.13628082 -0.012414856 0.10256154
-0.076783195 -0.11109394 0.028673347 -0.1344169 -0.06639374 -0.12547275 0.014899723 0.012451632
0.034296565 -0.117809445 -0.14032677 -0.013708271 -0.13528413 0.03161866 0.05301364 0.06867755
-0.10781041 -0.13629161 0.026198786 -0.014665393 -0.08188919 -0.007110766 -0.03205407 -0.0012820084
-0.10094395 -0.15284865 -0.08198328 0.0119269425 -0.07042755 -0.10411968 0.059071377 -0.026937414
-0.11999777 0.008491803 -0.121547006 -0.13436708 -0.049632195 0.01629156 -0.059610736 0.0486792
-0.10306648 0.13053794 -0.04151604 -0.09584187 -0.074956596 0.07539311 -0.20907836 -0.0611771
0.018414356 -0.08276481 0.04831252 -0.058347832 -0.03063997 0.0006142621 0.048065532 -0.109738804
-0.07299329 -0.060586445 0.03323297 0.12808965 -0.0751278 -0.06159836 0.0125716105 -0.08336214
-0.014182618 -0.15514803 -0.087771 -0.080007315 -0.03117857 0.00013506672 -0.17697048 -0.014857457
-0.07657823 -6.0300612e-05 -0.10805576 -0.018123943 0.061045554 -0.10383103 -0.14945264 -0.05010118
0.060960546 -0.051194023 -0.04890941 0.12344848 0.04341142 -0.14616403 -0.13176303 0.07764202
-0.030724714 -0.0707923 0.014992864 -0.016798856 -0.1164449 -0.13316819 0.102196865 -0.108606495
0.0020520657 0.06231912 0.017712198 -0.053473715 -0.09629255 -0.056765456 0.005865178 -0.027590247
-0.11242395 -0.018269261 -0.076730914 -0.09974355 0.02382152 -0.05617122 -0.04541417 0.07529325
0.088878214 -0.015806843 -0.12247029 0.014630211 0.12244128 0.08507714 -0.101566404 -0.027603602
-0.01602129 0.036155507 0.13319236 0.024022158 -0.17972134 0.085251845 -0.14871229 0.15794979
0.044002928 -0.04374298 0.07056814 0.2460513 -0.06816834 0.004368126 -0.13287131 0.0810169
-0.09941585 -0.10357002 -0.15774722 -0.14227107 0.07920606 -0.047170907 0.09224924 -0.101325125
-0.04265017 0.015612792 -0.11708982 0.07000442 0.039447896 -0.11411866 -0.07290302 -0.07103609
0.059364814 0.046946045 -0.038551573 -0.04001398 0.037933655 0.017291848 -0.15379666 -0.08693975
-0.09244406 -0.096456766 -0.019197853 0.041897092 -0.1141327 0.008373802 -0.044428352 -0.121430084
0.041786116 0.047767714 0.07996572 -0.07789669 0.025376566 -0.006602562 -0.08551361 -0.0010717089
-0.14850846 0.02656186 -0.05697872 -0.009672414 -0.096609555 0.0118687 0.008233824 -0.045002036
-0.01990973 -0.015388314 -0.052700177 -0.10387814 -0.012691724 -0.06147478 -0.04681599 0.05768241
-0.17781278 -0.14103375 0.057855584 -0.043065216 -0.13016461 -0.10154554 -0.09950732 -0.0813935

linear2.bias f4 [3]
00000000: cc43 c3bd f5cf febc f673 7cbd
-0.095344156 -0.031105021 -0.061634026
